…
I0612 15:15:58.572670  6506 net.cpp:294] The NetState phase (1) differed from the phase (0) specified by a rule in layer data
I0612 15:15:58.573036  6506 net.cpp:51] Initializing net from parameters: 
name: "hybirdNet"
state {
  phase: TEST
  level: 0
  stage: ""
}
layer {
  name: "data"
  type: "Data"
  top: "data"
  top: "label"
  include {
    phase: TEST
  }
  transform_param {
    mirror: false
    crop_size: 227
    mean_file: "/root/DRD_model/caffenet_hybridcnn/new/caffenet_hybridcnn_mean.binaryproto"
  }
  data_param {
    source: "/root/DRD_model/caffenet_flower/test_lmdb"
    batch_size: 100
    backend: LMDB
  }
}
layer {
  name: "conv1"
  type: "Convolution"
  bottom: "data"
  top: "conv1"
  param {
    lr_mult: 1
    decay_mult: 1
  }
  param {
    lr_mult: 2
    decay_mult: 0
  }
  convolution_param {
    num_output: 96
    kernel_size: 11
    stride: 4
    weight_filler {
      type: "gaussian"
      std: 0.01
    }
    bias_filler {
      type: "constant"
      value: 0
    }
  }
}
layer {
  name: "relu1"
  type: "ReLU"
  bottom: "conv1"
  top: "conv1"
}
layer {
  name: "pool1"
  type: "Pooling"
  bottom: "conv1"
  top: "pool1"
  pooling_param {
    pool: MAX
    kernel_size: 3
    stride: 2
  }
}
layer {
  name: "norm1"
  type: "LRN"
  bottom: "pool1"
  top: "norm1"
  lrn_param {
    local_size: 5
    alpha: 0.0001
    beta: 0.75
  }
}
layer {
  name: "conv2"
  type: "Convolution"
  bottom: "norm1"
  top: "conv2"
  param {
    lr_mult: 1
    decay_mult: 1
  }
  param {
    lr_mult: 2
    decay_mult: 0
  }
  convolution_param {
    num_output: 256
    pad: 2
    kernel_size: 5
    group: 2
    weight_filler {
      type: "gaussian"
      std: 0.01
    }
    bias_filler {
      type: "constant"
      value: 1
    }
  }
}
layer {
  name: "relu2"
  type: "ReLU"
  bottom: "conv2"
  top: "conv2"
}
layer {
  name: "pool2"
  type: "Pooling"
  bottom: "conv2"
  top: "pool2"
  pooling_param {
    pool: MAX
    kernel_size: 3
    stride: 2
  }
}
layer {
  name: "norm2"
  type: "LRN"
  bottom: "pool2"
  top: "norm2"
  lrn_param {
    local_size: 5
    alpha: 0.0001
    beta: 0.75
  }
}
layer {
  name: "conv3"
  type: "Convolution"
  bottom: "norm2"
  top: "conv3"
  param {
    lr_mult: 1
    decay_mult: 1
  }
  param {
    lr_mult: 2
    decay_mult: 0
  }
  convolution_param {
    num_output: 384
    pad: 1
    kernel_size: 3
    weight_filler {
      type: "gaussian"
      std: 0.01
    }
    bias_filler {
      type: "constant"
      value: 0
    }
  }
}
layer {
  name: "relu3"
  type: "ReLU"
  bottom: "conv3"
  top: "conv3"
}
layer {
  name: "conv4"
  type: "Convolution"
  bottom: "conv3"
  top: "conv4"
  param {
    lr_mult: 1
    decay_mult: 1
  }
  param {
    lr_mult: 2
    decay_mult: 0
  }
  convolution_param {
    num_output: 384
    pad: 1
    kernel_size: 3
    group: 2
    weight_filler {
      type: "gaussian"
      std: 0.01
    }
    bias_filler {
      type: "constant"
      value: 1
    }
  }
}
layer {
  name: "relu4"
  type: "ReLU"
  bottom: "conv4"
  top: "conv4"
}
layer {
  name: "conv5"
  type: "Convolution"
  bottom: "conv4"
  top: "conv5"
  param {
    lr_mult: 1
    decay_mult: 1
  }
  param {
    lr_mult: 2
    decay_mult: 0
  }
  convolution_param {
    num_output: 256
    pad: 1
    kernel_size: 3
    group: 2
    weight_filler {
      type: "gaussian"
      std: 0.01
    }
    bias_filler {
      type: "constant"
      value: 1
    }
  }
}
layer {
  name: "relu5"
  type: "ReLU"
  bottom: "conv5"
  top: "conv5"
}
layer {
  name: "pool5"
  type: "Pooling"
  bottom: "conv5"
  top: "pool5"
  pooling_param {
    pool: MAX
    kernel_size: 3
    stride: 2
  }
}
layer {
  name: "fc6"
  type: "InnerProduct"
  bottom: "pool5"
  top: "fc6"
  param {
    lr_mult: 1
    decay_mult: 1
  }
  param {
    lr_mult: 2
    decay_mult: 0
  }
  inner_product_param {
    num_output: 4096
    weight_filler {
      type: "gaussian"
      std: 0.005
    }
    bias_filler {
      type: "constant"
      value: 1
    }
  }
}
layer {
  name: "relu6"
  type: "ReLU"
  bottom: "fc6"
  top: "fc6"
}
layer {
  name: "drop6"
  type: "Dropout"
  bottom: "fc6"
  top: "fc6"
  dropout_param {
    dropout_ratio: 0.5
  }
}
layer {
  name: "fc7"
  type: "InnerProduct"
  bottom: "fc6"
  top: "fc7"
  param {
    lr_mult: 1
    decay_mult: 1
  }
  param {
    lr_mult: 2
    decay_mult: 0
  }
  inner_product_param {
    num_output: 4096
    weight_filler {
      type: "gaussian"
      std: 0.005
    }
    bias_filler {
      type: "constant"
      value: 1
    }
  }
}
layer {
  name: "relu7"
  type: "ReLU"
  bottom: "fc7"
  top: "fc7"
}
layer {
  name: "drop7"
  type: "Dropout"
  bottom: "fc7"
  top: "fc7"
  dropout_param {
    dropout_ratio: 0.5
  }
}
layer {
  name: "fc8"
  type: "InnerProduct"
  bottom: "fc7"
  top: "fc8"
  param {
    lr_mult: 10
    decay_mult: 1
  }
  param {
    lr_mult: 20
    decay_mult: 0
  }
  inner_product_param {
    num_output: 5
    weight_filler {
      type: "gaussian"
      std: 0.01
    }
    bias_filler {
      type: "constant"
      value: 0
    }
  }
}
layer {
  name: "accuracy"
  type: "Accuracy"
  bottom: "fc8"
  bottom: "label"
  top: "accuracy"
  include {
    phase: TEST
  }
}
layer {
  name: "loss"
  type: "SoftmaxWithLoss"
  bottom: "fc8"
  bottom: "label"
  top: "loss"
}
I0612 15:15:58.573701  6506 layer_factory.hpp:77] Creating layer data
I0612 15:15:58.573938  6506 db_lmdb.cpp:35] Opened lmdb /root/DRD_model/caffenet_flower/test_lmdb
I0612 15:15:58.574004  6506 net.cpp:84] Creating Layer data
I0612 15:15:58.574029  6506 net.cpp:380] data -> data
I0612 15:15:58.574136  6506 net.cpp:380] data -> label
I0612 15:15:58.574172  6506 data_transformer.cpp:25] Loading mean file from: /root/DRD_model/caffenet_hybridcnn/new/caffenet_hybridcnn_mean.binaryproto
I0612 15:15:58.636126  6506 data_layer.cpp:45] output data size: 100,3,227,227
I0612 15:15:58.924368  6506 base_data_layer.cpp:72] Initializing prefetch
I0612 15:15:58.924902  6506 base_data_layer.cpp:75] Prefetch initialized.
I0612 15:15:58.924919  6506 net.cpp:122] Setting up data
I0612 15:15:58.924960  6506 net.cpp:129] Top shape: 100 3 227 227 (15458700)
I0612 15:15:58.924975  6506 net.cpp:129] Top shape: 100 (100)
I0612 15:15:58.924985  6506 net.cpp:137] Memory required for data: 61835200
I0612 15:15:58.925020  6506 layer_factory.hpp:77] Creating layer label_data_1_split
I0612 15:15:58.925071  6506 net.cpp:84] Creating Layer label_data_1_split
I0612 15:15:58.925096  6506 net.cpp:406] label_data_1_split <- label
I0612 15:15:58.925149  6506 net.cpp:380] label_data_1_split -> label_data_1_split_0
I0612 15:15:58.925187  6506 net.cpp:380] label_data_1_split -> label_data_1_split_1
I0612 15:15:58.925266  6506 net.cpp:122] Setting up label_data_1_split
I0612 15:15:58.925282  6506 net.cpp:129] Top shape: 100 (100)
I0612 15:15:58.925294  6506 net.cpp:129] Top shape: 100 (100)
I0612 15:15:58.925303  6506 net.cpp:137] Memory required for data: 61836000
I0612 15:15:58.925313  6506 layer_factory.hpp:77] Creating layer conv1
I0612 15:15:58.925371  6506 net.cpp:84] Creating Layer conv1
I0612 15:15:58.925384  6506 net.cpp:406] conv1 <- data
I0612 15:15:58.925407  6506 net.cpp:380] conv1 -> conv1
I0612 15:15:59.214798  6516 data_layer.cpp:128] Prefetch batch: 287 ms.
I0612 15:15:59.214939  6516 data_layer.cpp:129]      Read time: 34.086 ms.
I0612 15:15:59.214953  6516 data_layer.cpp:130] Transform time: 248.95 ms.
I0612 15:15:59.723125  6506 cudnn_conv_layer.cpp:194] Reallocating workspace storage: 127308
I0612 15:15:59.723827  6506 net.cpp:122] Setting up conv1
I0612 15:15:59.723861  6506 net.cpp:129] Top shape: 100 96 55 55 (29040000)
I0612 15:15:59.723870  6506 net.cpp:137] Memory required for data: 177996000
I0612 15:15:59.723973  6506 layer_factory.hpp:77] Creating layer relu1
I0612 15:15:59.724020  6506 net.cpp:84] Creating Layer relu1
I0612 15:15:59.724035  6506 net.cpp:406] relu1 <- conv1
I0612 15:15:59.724068  6506 net.cpp:367] relu1 -> conv1 (in-place)
I0612 15:15:59.724376  6506 net.cpp:122] Setting up relu1
I0612 15:15:59.724391  6506 net.cpp:129] Top shape: 100 96 55 55 (29040000)
I0612 15:15:59.724400  6506 net.cpp:137] Memory required for data: 294156000
I0612 15:15:59.724408  6506 layer_factory.hpp:77] Creating layer pool1
I0612 15:15:59.724443  6506 net.cpp:84] Creating Layer pool1
I0612 15:15:59.724455  6506 net.cpp:406] pool1 <- conv1
I0612 15:15:59.724478  6506 net.cpp:380] pool1 -> pool1
I0612 15:15:59.724572  6506 net.cpp:122] Setting up pool1
I0612 15:15:59.724586  6506 net.cpp:129] Top shape: 100 96 27 27 (6998400)
I0612 15:15:59.724593  6506 net.cpp:137] Memory required for data: 322149600
I0612 15:15:59.724601  6506 layer_factory.hpp:77] Creating layer norm1
I0612 15:15:59.724637  6506 net.cpp:84] Creating Layer norm1
I0612 15:15:59.724647  6506 net.cpp:406] norm1 <- pool1
I0612 15:15:59.724668  6506 net.cpp:380] norm1 -> norm1
I0612 15:15:59.725527  6506 net.cpp:122] Setting up norm1
I0612 15:15:59.725546  6506 net.cpp:129] Top shape: 100 96 27 27 (6998400)
I0612 15:15:59.725554  6506 net.cpp:137] Memory required for data: 350143200
I0612 15:15:59.725565  6506 layer_factory.hpp:77] Creating layer conv2
I0612 15:15:59.725606  6506 net.cpp:84] Creating Layer conv2
I0612 15:15:59.725618  6506 net.cpp:406] conv2 <- norm1
I0612 15:15:59.725646  6506 net.cpp:380] conv2 -> conv2
I0612 15:15:59.774000  6506 cudnn_conv_layer.cpp:194] Reallocating workspace storage: 39336
I0612 15:15:59.774091  6506 net.cpp:122] Setting up conv2
I0612 15:15:59.774123  6506 net.cpp:129] Top shape: 100 256 27 27 (18662400)
I0612 15:15:59.774132  6506 net.cpp:137] Memory required for data: 424792800
I0612 15:15:59.774207  6506 layer_factory.hpp:77] Creating layer relu2
I0612 15:15:59.774312  6506 net.cpp:84] Creating Layer relu2
I0612 15:15:59.774328  6506 net.cpp:406] relu2 <- conv2
I0612 15:15:59.774359  6506 net.cpp:367] relu2 -> conv2 (in-place)
I0612 15:15:59.775460  6506 net.cpp:122] Setting up relu2
I0612 15:15:59.775487  6506 net.cpp:129] Top shape: 100 256 27 27 (18662400)
I0612 15:15:59.775496  6506 net.cpp:137] Memory required for data: 499442400
I0612 15:15:59.775511  6506 layer_factory.hpp:77] Creating layer pool2
I0612 15:15:59.775559  6506 net.cpp:84] Creating Layer pool2
I0612 15:15:59.775574  6506 net.cpp:406] pool2 <- conv2
I0612 15:15:59.775607  6506 net.cpp:380] pool2 -> pool2
I0612 15:15:59.775707  6506 net.cpp:122] Setting up pool2
I0612 15:15:59.775727  6506 net.cpp:129] Top shape: 100 256 13 13 (4326400)
I0612 15:15:59.775734  6506 net.cpp:137] Memory required for data: 516748000
I0612 15:15:59.775743  6506 layer_factory.hpp:77] Creating layer norm2
I0612 15:15:59.775768  6506 net.cpp:84] Creating Layer norm2
I0612 15:15:59.775777  6506 net.cpp:406] norm2 <- pool2
I0612 15:15:59.775796  6506 net.cpp:380] norm2 -> norm2
I0612 15:15:59.776080  6506 net.cpp:122] Setting up norm2
I0612 15:15:59.776093  6506 net.cpp:129] Top shape: 100 256 13 13 (4326400)
I0612 15:15:59.776101  6506 net.cpp:137] Memory required for data: 534053600
I0612 15:15:59.776109  6506 layer_factory.hpp:77] Creating layer conv3
I0612 15:15:59.776147  6506 net.cpp:84] Creating Layer conv3
I0612 15:15:59.776159  6506 net.cpp:406] conv3 <- norm2
I0612 15:15:59.776183  6506 net.cpp:380] conv3 -> conv3
I0612 15:15:59.887413  6516 data_layer.cpp:128] Prefetch batch: 629 ms.
I0612 15:15:59.887639  6516 data_layer.cpp:129]      Read time: 387.967 ms.
I0612 15:15:59.887713  6516 data_layer.cpp:130] Transform time: 237.577 ms.
I0612 15:15:59.896847  6506 cudnn_conv_layer.cpp:194] Reallocating workspace storage: 18874368
I0612 15:15:59.899529  6506 net.cpp:122] Setting up conv3
I0612 15:15:59.899585  6506 net.cpp:129] Top shape: 100 384 13 13 (6489600)
I0612 15:15:59.899592  6506 net.cpp:137] Memory required for data: 560012000
I0612 15:15:59.899675  6506 layer_factory.hpp:77] Creating layer relu3
I0612 15:15:59.899724  6506 net.cpp:84] Creating Layer relu3
I0612 15:15:59.899742  6506 net.cpp:406] relu3 <- conv3
I0612 15:15:59.899781  6506 net.cpp:367] relu3 -> conv3 (in-place)
I0612 15:15:59.900542  6506 net.cpp:122] Setting up relu3
I0612 15:15:59.900569  6506 net.cpp:129] Top shape: 100 384 13 13 (6489600)
I0612 15:15:59.900578  6506 net.cpp:137] Memory required for data: 585970400
I0612 15:15:59.900591  6506 layer_factory.hpp:77] Creating layer conv4
I0612 15:15:59.900669  6506 net.cpp:84] Creating Layer conv4
I0612 15:15:59.900686  6506 net.cpp:406] conv4 <- conv3
I0612 15:15:59.900729  6506 net.cpp:380] conv4 -> conv4
I0612 15:15:59.992776  6506 cudnn_conv_layer.cpp:194] Reallocating workspace storage: 14155776
I0612 15:15:59.993461  6506 net.cpp:122] Setting up conv4
I0612 15:15:59.993491  6506 net.cpp:129] Top shape: 100 384 13 13 (6489600)
I0612 15:15:59.993499  6506 net.cpp:137] Memory required for data: 611928800
I0612 15:15:59.993533  6506 layer_factory.hpp:77] Creating layer relu4
I0612 15:15:59.993568  6506 net.cpp:84] Creating Layer relu4
I0612 15:15:59.993584  6506 net.cpp:406] relu4 <- conv4
I0612 15:15:59.993619  6506 net.cpp:367] relu4 -> conv4 (in-place)
I0612 15:15:59.994035  6506 net.cpp:122] Setting up relu4
I0612 15:15:59.994056  6506 net.cpp:129] Top shape: 100 384 13 13 (6489600)
I0612 15:15:59.994065  6506 net.cpp:137] Memory required for data: 637887200
I0612 15:15:59.994076  6506 layer_factory.hpp:77] Creating layer conv5
I0612 15:15:59.994123  6506 net.cpp:84] Creating Layer conv5
I0612 15:15:59.994137  6506 net.cpp:406] conv5 <- conv4
I0612 15:15:59.994168  6506 net.cpp:380] conv5 -> conv5
I0612 15:16:00.057193  6506 cudnn_conv_layer.cpp:194] Reallocating workspace storage: 9437184
I0612 15:16:00.057903  6506 net.cpp:122] Setting up conv5
I0612 15:16:00.057936  6506 net.cpp:129] Top shape: 100 256 13 13 (4326400)
I0612 15:16:00.057945  6506 net.cpp:137] Memory required for data: 655192800
I0612 15:16:00.058004  6506 layer_factory.hpp:77] Creating layer relu5
I0612 15:16:00.058059  6506 net.cpp:84] Creating Layer relu5
I0612 15:16:00.058076  6506 net.cpp:406] relu5 <- conv5
I0612 15:16:00.058104  6506 net.cpp:367] relu5 -> conv5 (in-place)
I0612 15:16:00.058416  6506 net.cpp:122] Setting up relu5
I0612 15:16:00.058435  6506 net.cpp:129] Top shape: 100 256 13 13 (4326400)
I0612 15:16:00.058444  6506 net.cpp:137] Memory required for data: 672498400
I0612 15:16:00.058452  6506 layer_factory.hpp:77] Creating layer pool5
I0612 15:16:00.058490  6506 net.cpp:84] Creating Layer pool5
I0612 15:16:00.058501  6506 net.cpp:406] pool5 <- conv5
I0612 15:16:00.058522  6506 net.cpp:380] pool5 -> pool5
I0612 15:16:00.058614  6506 net.cpp:122] Setting up pool5
I0612 15:16:00.058630  6506 net.cpp:129] Top shape: 100 256 6 6 (921600)
I0612 15:16:00.058637  6506 net.cpp:137] Memory required for data: 676184800
I0612 15:16:00.058646  6506 layer_factory.hpp:77] Creating layer fc6
I0612 15:16:00.058681  6506 net.cpp:84] Creating Layer fc6
I0612 15:16:00.058691  6506 net.cpp:406] fc6 <- pool5
I0612 15:16:00.058714  6506 net.cpp:380] fc6 -> fc6
I0612 15:16:00.327772  6516 data_layer.cpp:128] Prefetch batch: 423 ms.
I0612 15:16:00.327992  6516 data_layer.cpp:129]      Read time: 164.418 ms.
I0612 15:16:00.328068  6516 data_layer.cpp:130] Transform time: 248.211 ms.
I0612 15:16:00.687857  6516 data_layer.cpp:128] Prefetch batch: 346 ms.
I0612 15:16:00.688089  6516 data_layer.cpp:129]      Read time: 119.149 ms.
I0612 15:16:00.688165  6516 data_layer.cpp:130] Transform time: 225.278 ms.
I0612 15:16:07.231098  6506 net.cpp:122] Setting up fc6
I0612 15:16:07.231379  6506 net.cpp:129] Top shape: 100 4096 (409600)
I0612 15:16:07.231461  6506 net.cpp:137] Memory required for data: 677823200
I0612 15:16:07.231561  6506 layer_factory.hpp:77] Creating layer relu6
I0612 15:16:07.231662  6506 net.cpp:84] Creating Layer relu6
I0612 15:16:07.231744  6506 net.cpp:406] relu6 <- fc6
I0612 15:16:07.231844  6506 net.cpp:367] relu6 -> fc6 (in-place)
I0612 15:16:07.232280  6506 net.cpp:122] Setting up relu6
I0612 15:16:07.232383  6506 net.cpp:129] Top shape: 100 4096 (409600)
I0612 15:16:07.232453  6506 net.cpp:137] Memory required for data: 679461600
I0612 15:16:07.232530  6506 layer_factory.hpp:77] Creating layer drop6
I0612 15:16:07.232637  6506 net.cpp:84] Creating Layer drop6
I0612 15:16:07.232731  6506 net.cpp:406] drop6 <- fc6
I0612 15:16:07.232833  6506 net.cpp:367] drop6 -> fc6 (in-place)
I0612 15:16:07.233008  6506 net.cpp:122] Setting up drop6
I0612 15:16:07.233093  6506 net.cpp:129] Top shape: 100 4096 (409600)
I0612 15:16:07.233161  6506 net.cpp:137] Memory required for data: 681100000
I0612 15:16:07.233235  6506 layer_factory.hpp:77] Creating layer fc7
I0612 15:16:07.233336  6506 net.cpp:84] Creating Layer fc7
I0612 15:16:07.233410  6506 net.cpp:406] fc7 <- fc6
I0612 15:16:07.233503  6506 net.cpp:380] fc7 -> fc7
I0612 15:16:10.363756  6506 net.cpp:122] Setting up fc7
I0612 15:16:10.363870  6506 net.cpp:129] Top shape: 100 4096 (409600)
I0612 15:16:10.363898  6506 net.cpp:137] Memory required for data: 682738400
I0612 15:16:10.363947  6506 layer_factory.hpp:77] Creating layer relu7
I0612 15:16:10.364004  6506 net.cpp:84] Creating Layer relu7
I0612 15:16:10.364038  6506 net.cpp:406] relu7 <- fc7
I0612 15:16:10.364086  6506 net.cpp:367] relu7 -> fc7 (in-place)
I0612 15:16:10.365139  6506 net.cpp:122] Setting up relu7
I0612 15:16:10.365211  6506 net.cpp:129] Top shape: 100 4096 (409600)
I0612 15:16:10.365237  6506 net.cpp:137] Memory required for data: 684376800
I0612 15:16:10.365270  6506 layer_factory.hpp:77] Creating layer drop7
I0612 15:16:10.365325  6506 net.cpp:84] Creating Layer drop7
I0612 15:16:10.365358  6506 net.cpp:406] drop7 <- fc7
I0612 15:16:10.365409  6506 net.cpp:367] drop7 -> fc7 (in-place)
I0612 15:16:10.365497  6506 net.cpp:122] Setting up drop7
I0612 15:16:10.365526  6506 net.cpp:129] Top shape: 100 4096 (409600)
I0612 15:16:10.365550  6506 net.cpp:137] Memory required for data: 686015200
I0612 15:16:10.365574  6506 layer_factory.hpp:77] Creating layer fc8
I0612 15:16:10.365618  6506 net.cpp:84] Creating Layer fc8
I0612 15:16:10.365644  6506 net.cpp:406] fc8 <- fc7
I0612 15:16:10.365685  6506 net.cpp:380] fc8 -> fc8
I0612 15:16:10.368782  6506 net.cpp:122] Setting up fc8
I0612 15:16:10.368881  6506 net.cpp:129] Top shape: 100 5 (500)
I0612 15:16:10.368908  6506 net.cpp:137] Memory required for data: 686017200
I0612 15:16:10.368955  6506 layer_factory.hpp:77] Creating layer fc8_fc8_0_split
I0612 15:16:10.369009  6506 net.cpp:84] Creating Layer fc8_fc8_0_split
I0612 15:16:10.369041  6506 net.cpp:406] fc8_fc8_0_split <- fc8
I0612 15:16:10.369093  6506 net.cpp:380] fc8_fc8_0_split -> fc8_fc8_0_split_0
I0612 15:16:10.369139  6506 net.cpp:380] fc8_fc8_0_split -> fc8_fc8_0_split_1
I0612 15:16:10.369241  6506 net.cpp:122] Setting up fc8_fc8_0_split
I0612 15:16:10.369276  6506 net.cpp:129] Top shape: 100 5 (500)
I0612 15:16:10.369302  6506 net.cpp:129] Top shape: 100 5 (500)
I0612 15:16:10.369324  6506 net.cpp:137] Memory required for data: 686021200
I0612 15:16:10.369350  6506 layer_factory.hpp:77] Creating layer accuracy
I0612 15:16:10.369401  6506 net.cpp:84] Creating Layer accuracy
I0612 15:16:10.369429  6506 net.cpp:406] accuracy <- fc8_fc8_0_split_0
I0612 15:16:10.369463  6506 net.cpp:406] accuracy <- label_data_1_split_0
I0612 15:16:10.369501  6506 net.cpp:380] accuracy -> accuracy
…
